Context Based Chatbot/data.pth (torch, 64023 bytes, 6 tensors)

l1.weight f4 [51, 179]
00000000: 74cc 313e f9a2 3ebe 1d67 de3d e283 9ebe
00000010: fb06 16be 5f82 493e 8238 2abe d088 a03e
00000020: 7e20 bf3e 8942 863e 936f 0fbe c647 a0bd
00000030: 5f60 0e3e eecd 6cbd a0aa f73e 4863 23bc
00000040: cace 0fbe 15a6 8bbe 7b48 2cbe c3ae 00be
00000050: 3f6f 8dbe fc41 003e 2400 17be b8da 403e
00000060: be59 563e 2bb9 173e 5658 a53e 69ba 8b3e
00000070: 9ede 8abd 9f27 fbbc 13bf adbd bb36 8cbe
00000080: 024d a83c 3225 623d 5c52 15be c865 e7bd
00000090: 9030 5e3e 57cd 60bd ff3b c53d 5ab3 e5bd
000000a0: 5940 3bbd b377 69bd a274 90be f84e 61bd
000000b0: 0c61 fbbd 270f bbbd 17c7 35be 0210 05be
000000c0: 1506 b8be ed6c 14be 73fb f8bd f427 52be
000000d0: 3f94 03be 09cc c63e 62ff 9f3e 042b c3bd
000000e0: 0b16 3e3e aaac 7bbe 5da3 d9bd a04d 4bbe
000000f0: 1c96 563d eb88 803e 9106 09bd 736e 4dbd
00000100: 46b3 9cbe ebd4 1dbe f03d bbbc 40d9 353e
00000110: dca8 4ebe d540 583e 783b 8abe fd88 00be
00000120: ea5a 383e f18e 953c 1b93 14be 79fa 84be
00000130: 0576 aebd 4e5a adbd 3ee7 a03e 93f7 56be
00000140: d4d6 6f3e acd1 653e c23a 12be 1ee1 4cbd
00000150: 90a8 d5bd e11d c43e e18f e6bd dcb3 8c3d
00000160: f7f1 8c3d 665f 12be 4d44 103c a43c 08be
00000170: 902f 16bd 533a 44be c1a1 b6bd 1ebd 3dbe
00000180: a2f7 4cbe 7fc1 07be c59e bd3d 4996 1f3e
00000190: 97d3 513e fce0 423e 2e58 133c ce3a 8bbe
000001a0: ddb6 b2bd b4b9 393e 0009 7dbe 12c4 a93e
000001b0: 123b 9e3e f135 a83d 46e5 863e 355e 983d
000001c0: b018 4fbe 7bac 163e 517a 11be 0417 a73d
000001d0: 456a 09be 17d0 59be 6cfb ec3c 98bd d8bc
000001e0: eede b8bd 8b4b 4bbe 4b14 963e 5011 833e
000001f0: f5da 05be 28b8 9a3e 0ff8 5a3c 10a0 383e
00000200: ed37 4fbe d5a7 803e c47d 1abe 04fc 95bd
00000210: 0422 2fbe 22fe bb3d 9ea8 2d3e 6c54 8f3c
00000220: 3d4b 67be f3f6 95be 5912 f13e 3fc3 96bd
00000230: 8417 783e 73b2 823e cb8a d13d 10a6 ca3e
00000240: a0a8 4cbe 6bd7 f33e 8a4f c1bd 9285 38bc
00000250: 218d a4bd 77d3 f7bc 6c89 0d3e bac6 75be
00000260: b136 5dbe 628b e53d 4dfb 2ebe 2644 0b3e
00000270: 7d23 003e b33d 293e d93e 363e ed52 c13d
00000280: 067d 2f3e b45c 313e 32cb 11be 0278 3a3e
00000290: 5c8a ecbe 0153 cb3d 73ab 9ebe ef15 edbd
000002a0: 268b 96be 3486 873d acb9 1fbc 9a6a e13d
000002b0: ecf1 0fbe 6cae f23e 68be adbd af35 9ebe
000002c0: 6f9d 94be 07f9 093e b375 c1be 4011 ca3e
000002d0: 2bc0 cd3e f53a 083d 1848 1dbd 0a04 46be
000002e0: 2450 18bd d098 08be e5dd 3cbd aa06 b83d
000002f0: 3a5e 9fbd 262b 263e ebfa 06bd 1394 82be
00000300: bd9a aa3e d9cf 133f d910 843e e874 0bbe
00000310: 0490 c33e f567 30bc 48fd b3be efb9 6a3e
00000320: 479b 223e ee76 e0bc fd22 d93c 6986 9cbd
00000330: eb8a b0bd b731 f7bd c84f 2f3e 6727 d2bd
00000340: f3de b4bd 36dd b4bd eb5a dfbd 9b0f adbe
00000350: a79a 29be 911c 19bc 1a34 92bd 615a 9c3b
00000360: e4e3 453c b0ec 01be 631d 42be d5a0 a7bc
00000370: cedf 97be 709e 9cbd 0a2e ceba fc66 503e
00000380: 612c d43d c311 74bd 4bf6 0b3e 4b58 8fbd
00000390: 8fb0 d33e ad73 2fbe 1ea7 d6be 60e3 94bc
000003a0: 5f41 ffbe 5979 1f3e 82a3 033f b8f3 afbd
000003b0: d354 0cbe 9b0c 7fbd 3188 01bd 3f82 d8bd
000003c0: 1e4d 83be 7ac6 cfbd f081 cfbd d727 ad3e
000003d0: cce8 af3d a6b8 32bd 2542 4b3e 2091 9dbc
000003e0: 37cf 9bbd 0b12 aabd d6d4 38be 52e7 553e
000003f0: a967 8c3e f72c b1bc 17d0 c9bb dc67 993d
0.17363149 -0.18616857 0.10859511 -0.30959994 -0.146511 0.19678639 -0.16623119 0.3135438
0.37329477 0.26222637 -0.14007406 -0.0782619 0.1390395 -0.057813577 0.48372364 -0.009972401
-0.14043728 -0.27275148 -0.16824524 -0.12566666 -0.27623937 0.12525171 -0.14746147 0.18833435
0.20932671 0.1481673 0.32293957 0.27290657 -0.06780742 -0.030658541 -0.0848371 -0.27385506
0.020544533 0.055211253 -0.14582199 -0.1129871 0.21698213 -0.054883327 0.09630584 -0.11215849
-0.045715664 -0.05699892 -0.28213984 -0.05500695 -0.122743696 -0.091337495 -0.17751728 -0.12994388
-0.3594214 -0.14494677 -0.12157335 -0.20523053 -0.1284952 0.3882754 0.3124953 -0.09529689
0.18563096 -0.24577585 -0.10626862 -0.1985383 0.05238925 0.2510446 -0.033453528 -0.05015416
-0.30605525 -0.15413253 -0.022856683 0.17758656 -0.20181602 0.21118481 -0.26998496 -0.12552257
0.18003431 0.018256636 -0.14509241 -0.25972345 -0.08518604 -0.0846449 0.31426424 -0.2099288
0.23421794 0.22443265 -0.14280227 -0.050019376 -0.10432541 0.38304046 -0.112579115 0.06870243
0.06882089 -0.14294204 0.008805347 -0.13304383 -0.036666453 -0.19162874 -0.08917571 -0.18529174
-0.2001634 -0.13257407 0.092587985 0.15584673 0.20490871 0.19031137 0.008993192 -0.27193302
-0.08726285 0.18137246 -0.24710464 0.33157402 0.30904442 0.082134135 0.26346797 0.074398436
-0.20224261 0.14714234 -0.14206816 0.08158687 -0.13419445 -0.21270786 0.028928481 -0.026457593
-0.090268955 -0.19853036 0.29312357 0.25599146 -0.13071807 0.30218625 0.013364806 0.18029809
-0.20236178 0.25128046 -0.15087038 -0.07323459 -0.1710282 0.09179331 0.16958854 0.01749631
-0.22587295 -0.2928997 0.4708431 -0.07361459 0.2422772 0.2552677 0.10231551 0.3957982
-0.199862 0.47625288 -0.09438999 -0.011262314 -0.08034731 -0.030252201 0.13821954 -0.2400159
-0.21602894 0.11208226 -0.17088051 0.13600215 0.12513538 0.16527443 0.17797412 0.09439645
0.17137536 0.1732052 -0.14237669 0.18209842 -0.4619931 0.09927941 -0.3099018 -0.11576449
-0.29403037 0.06617394 -0.0097488575 0.11006661 -0.1405713 0.47398698 -0.08483583 -0.30900332
-0.29026362 0.13473903 -0.3778511 0.39466286 0.40185675 0.03325935 -0.038398832 -0.19337478
-0.037185803 -0.13339543 -0.046110053 0.08985646 -0.07781644 0.16227397 -0.032954138 -0.25503597
0.3332118 0.57739025 0.25794104 -0.13618815 0.38195813 -0.010766973 -0.35154176 0.2292249
0.15879546 -0.02740046 0.026505942 -0.07642824 -0.086202465 -0.12070029 0.17120278 -0.10261422
-0.08831587 -0.08831255 -0.10906013 -0.3380097 -0.16562901 -0.00934519 -0.07138844 0.004771516
0.012078259 -0.12687945 -0.18956523 -0.020462433 -0.29662937 -0.07647407 -0.0015730273 0.20351785
0.10360027 -0.05958725 0.13668172 -0.069992624 0.4134564 -0.1713397 -0.41924375 -0.018174827
-0.49854562 0.15573634 0.5142137 -0.085914075 -0.13704233 -0.06226788 -0.031624023 -0.105717175
-0.25644773 -0.10145278 -0.101322055 0.33819458 0.08589324 -0.043633126 0.19849451 -0.01923424
-0.076078825 -0.08304223 -0.1804994 0.20889023 0.27422836 -0.021627886 -0.0061588394 0.07490513

l1.bias f4 [51]
00000000: 37b5 b53e 3f6e ad3e 70f1 b93e 24b7 c13e
00000010: 3ea6 a83e 2c61 a43e 014f b83e b010 b73e
00000020: b6a9 c63e 273b d23e f90f c13e fbe0 a43e
00000030: f0fc bf3e 90b0 8d3e 93dd af3e 5634 bd3e
00000040: b4ef d83e 6b5d a13e 2f7b ce3e e8bc aa3e
00000050: 3fbf a43e e6b2 c73e 6d21 8f3e 1aad d13e
00000060: 2169 d03e 0c47 c43e 2be5 cd3e fe7d de3e
00000070: 21ce ce3e 6ec1 9f3e 5ba6 b03e f90f 9c3e
00000080: 1879 c23e d296 c63e 8001 e43e cc34 c83e
00000090: 50ee 953e de22 d83e 5423 ac3e a3e4 a63e
000000a0: 790b b03e 5895 d93e b4b7 943e 7abf d33e
000000b0: 4019 b03e efd1 c63e 9a98 bc3e de3b e63e
000000c0: c488 c43e f959 b83e fe1a a03e
0.35489818 0.33873174 0.36317015 0.37835038 0.32939333 0.32105386 0.35997775 0.3575492
0.38801354 0.41060755 0.377075 0.32202896 0.37497663 0.2767377 0.34348735 0.36953992
0.4237038 0.31516585 0.40328357 0.3334725 0.3217716 0.39003676 0.2795519 0.4095238
0.40705207 0.38335454 0.40213904 0.434555 0.4039164 0.31202263 0.3450192 0.30480936
0.37983012 0.38786942 0.44532394 0.3910278 0.2928338 0.42214102 0.33620703 0.3259631
0.34383753 0.42496753 0.29046404 0.41357023 0.34394264 0.38832042 0.36835176 0.4496755
0.38385594 0.36006144 0.31270593

l2.weight f4 [51, 51]
00000000: 7eb0 68be 3454 0bbd 77ea e2be 93c5 0abd
00000010: 7af0 943d 2eeb e03e 6f9b e1bd 34a5 de3e
00000020: d8b3 fb3d 9dd7 04bf fc61 773e b6b2 463d
00000030: 208e b4be 1b63 063f e459 88be 57fa 293e
00000040: b0a2 cd3d 598e 4c3e 029d 21bd 9d1c 8abe
00000050: 5f65 bb3e 84b2 893e 8f42 14be d546 613e
00000060: e076 4ebe eadb 6d3e f4a1 f43e 236a 1b3e
00000070: a3e2 83be ae1f 4b3d 5dbf 793e 7a3c 4b3e
00000080: 60a9 e13e bed7 a2bd b69d 853b 05bc a03e
00000090: 5a70 f73e 4118 e3bd bd28 f8bd 5477 4d3e
000000a0: 1251 093e 39f4 343d 26fc dfbd 3441 ca3e
000000b0: fa6a bd3e 69eb 9bbe 9d5a c33e eb21 4b3e
000000c0: ce4b 8fbd 0188 633e fc56 58be e60a 0e3f
000000d0: ef5f 8ebd f5d8 003f 2d8b b6be 9193 98bd
000000e0: 8a23 0ebf 1b80 5b3e c089 26be ed91 993e
000000f0: 9cab 823e 9334 e83d 7da2 963e f32c d5bd
00000100: ea4e bebe c75a a8be 9bee 24be c6ce f1bd
00000110: c7f1 8abc 9414 073f 75fb 8b3d 933a 0ebe
00000120: 0ae1 913e 8f56 e5be 21c0 7e3e d87b 023f
00000130: 0830 a83d 24bd 5c3d 019b d83e 7eb5 c73e
00000140: a7b8 843e 0b78 df3d 784a d23b 93f0 99be
00000150: 9caa 593e b8fb c03e 97c1 823e 9931 1b3d
00000160: 4a8b 963e 00c5 0b3f f5b4 a7be 6916 97bd
00000170: 9d09 9c3c b495 1dbd 77c3 143d 0770 c53e
00000180: ed2d d03e 5b37 163e 4bab 983e 774c 34bd
00000190: e8e0 e1bc c1f4 3c3e 94e1 23bd b95f 03bf
000001a0: 2168 0a3f d4bf 1a3e 7a40 8ebe 3d4e a5be
000001b0: 4883 48be 83ca b2be dfb5 e13e 585d 153e
000001c0: 9c3e 55be 85db d1be 3d54 843d 613b eb3e
000001d0: a349 b33d 111e cb3e 966a 423e 6dad 3dbe
000001e0: a094 263e ed0a db3e 4b40 923e a57e 9a3e
000001f0: 62c3 0ebe 8a43 043f 7f89 10be b9ca ac3e
00000200: 8b59 353e 0d69 54bc e32b 283e a7ac 073e
00000210: 06c0 55be 2231 783e 08e5 8c3e efcc c63e
00000220: 76a4 023f e1a3 ad3e 57cf 223e 7c13 a93e
00000230: 1e4b 943e c172 f0be d9d5 b1be 991d ea3d
00000240: ba46 a1bd 5713 173e b107 ebbe 9a65 033f
00000250: fd2e 85be cf1b 833e 2fd8 9fbd a877 673e
00000260: 7dd1 cf3e b317 c03e 5ccf e4be 0a48 883e
00000270: f21d d03e 39ab ddbe bfcb 59bd 94c4 363e
00000280: 327c ef3e a221 d53e e90b 06be 2d1c e03e
00000290: fef7 413e ed43 f63d 7849 193b 2744 49be
000002a0: cbf2 803e 6d4f 533e 6362 4d3e a8f2 7ebd
000002b0: 42ab e73c 1773 3c3e 84ba b43c 332d f7bd
000002c0: 64ea 443e 9901 bc3e fb70 c6bd 4f66 e53c
000002d0: c9b4 eabe 64fc 9c3e fa1d bd3e 3f0e 54be
000002e0: 5060 ee3e eb93 c6be 315e 83be e9b5 e0be
000002f0: c095 d73e c620 fd3d ce42 e9bc 9822 7d3e
00000300: 7119 ee3d 5d7a 363e e994 693e d297 0e3e
00000310: 6340 2a3e 53e6 d33e 5816 7e3e 16b1 013f
00000320: dbf8 db3e bbc6 40be a05c a0bd b304 38be
00000330: 4778 1cbe 0122 82be 002a d4bc 8494 dabc
00000340: 8da9 003c 6789 f53e 8c95 533e dc32 ef3e
00000350: f642 913e d7f6 cbbe ef26 16bf 8dd6 d83e
00000360: 73b7 90be 47ec 6dbd 4a31 78bd 5f1d b03e
00000370: d020 b03d b211 4bbe 3e79 003e 82a5 963e
00000380: 8653 073f 35e1 30be 2a87 fabc 941b c13e
00000390: 0f49 c5be d5ce b3be f8e2 dc3d 73f8 313d
000003a0: a2ac c9be cc05 363e 5b89 5f3e c83e de3e
000003b0: 47e5 ed3e b9f1 aa3e af9c 48bd 5846 1c3e
000003c0: 2389 1b3e df43 2b3e ef92 b0bd 23d1 10bd
000003d0: d6c9 f03e d138 9ebe e8dc 1b3f bb49 b0bc
000003e0: 907d 88be 9854 5e3a 8335 793e 7118 7c3e
000003f0: 5ad2 40be df53 6c3e 7ddc 8b3e 25c3 cebe
-0.22723576 -0.03401585 -0.44319507 -0.033879828 0.0727243 0.43929428 -0.11015975 0.43485415
0.12290162 -0.518915 0.24158472 0.048510276 -0.35264683 0.5249497 -0.2663108 0.16599403
0.10040796 0.19976176 -0.039456375 -0.26974955 0.36600778 0.2689401 -0.14478515 0.21999677
-0.20162535 0.23228422 0.4777981 0.15177207 -0.25758848 0.04959076 0.24389406 0.19847289
0.44074535 -0.07951306 0.0040776385 0.31393448 0.48327905 -0.110886104 -0.12117145 0.20065051
0.13409832 0.04417822 -0.109367654 0.3950287 0.3699568 -0.3045304 0.3815507 0.19837157
-0.069968805 0.2221985 -0.21126932 0.5548538 -0.06951892 0.5033105 -0.35653058 -0.07450021
-0.5552298 0.21435587 -0.16263485 0.29994145 0.25521553 0.11338153 0.29420844 -0.10408964
-0.37169582 -0.32881758 -0.16106646 -0.11807017 -0.016960992 0.52765775 0.06835071 -0.13889532
0.28492004 -0.447926 0.24877979 0.5097022 0.08212286 0.053891316 0.4230576 0.39005655
0.2592213 0.10911568 0.006417569 -0.30066356 0.21256489 0.37692046 0.25538322 0.037889097
0.29403144 0.54597473 -0.32755247 -0.07377321 0.019047553 -0.038472846 0.036319222 0.38562033
0.4066004 0.14669554 0.29818186 -0.044018235 -0.027573064 0.18452741 -0.04001005 -0.51317936
0.5406514 0.15112239 -0.27783567 -0.32286254 -0.1958133 -0.3492013 0.4408407 0.14586389
-0.20824665 -0.40987793 0.0646138 0.4594374 0.087542795 0.39671376 0.18985972 -0.18523188
0.16267633 0.42781773 0.28564677 0.30174747 -0.1394172 0.51665556 -0.1411495 0.33748415
0.17709939 -0.012964499 0.16422991 0.13249455 -0.20874032 0.24237493 0.27518487 0.38828227
0.510322 0.33914092 0.15899406 0.33022678 0.2896356 -0.4696255 -0.34733465 0.114314266
-0.07874818 0.14753471 -0.45904306 0.51326907 -0.26012412 0.25607154 -0.078049056 0.22604239
0.40589514 0.3751808 -0.44689453 0.2661746 0.40647846 -0.43294695 -0.053172823 0.17848426
0.4677444 0.41627222 -0.13090481 0.43771496 0.18942258 0.120246746 0.0023389738 -0.19654904
0.25185236 0.20635767 0.20057063 -0.062243134 0.028279904 0.18403278 0.022061594 -0.12069168
0.19230038 0.3671997 -0.09689518 0.028002886 -0.45841053 0.3066131 0.36936933 -0.2070856
0.46557856 -0.38784727 -0.256578 -0.43888786 0.42106438 0.12359767 -0.028474238 0.24720228
0.11625946 0.17820115 0.22810711 0.13925102 0.16626124 0.4138666 0.24813211 0.50660837
0.429633 -0.1882581 -0.07830167 -0.17970543 -0.15280257 -0.25416568 -0.025898933 -0.026682146
0.007852924 0.47956392 0.20662516 0.4671849 0.283714 -0.3983676 -0.5865316 0.4235119
-0.2826496 -0.05808666 -0.06059388 0.34397408 0.086000085 -0.19830969 0.1254625 0.29423147
0.5286182 -0.1727341 -0.03058203 0.37716353 -0.38532302 -0.35118738 0.10785478 0.04344983
-0.3938952 0.17775649 0.2182974 0.43407273 0.46463987 0.33387545 -0.04897755 0.15261209
0.15189032 0.1672511 -0.08621775 -0.0353557 0.4702899 -0.30902722 0.6088395 -0.021519532
-0.26658297 0.00084812334 0.2433682 0.24618699 -0.18830243 0.2307887 0.27316657 -0.40383258

l2.bias f4 [51]
00000000: a0e9 bdbc 14cd d73d 8280 483e 7e33 3d3c
00000010: 784d 263e fd79 de3d 3dde a13d 0463 a03d
00000020: 9636 373e 3bc2 da3d 3be9 0f3c c29d 503d
00000030: b374 893d 016b 423e 36fe de3d 7f53 d23d
00000040: 06d7 b33d 5d2d 113e 8a9d 073e 92b6 a7bd
00000050: 2cfb d23d 9732 b43d b574 453e a2de bf3d
00000060: d967 a8bc 983c 3b3e 0bfd 283d dee6 2b3e
00000070: 412f ff3c b2e1 c83d 62f5 f03d b4e2 573e
00000080: e2b3 13be 41ee ae3d ca21 af3d 6fe8 073e
00000090: 7943 8b3d ff0a 0ebe 2b91 2e3e 3216 763b
000000a0: a023 033e aa60 623e 45cf ae3d fcb2 813e
000000b0: 10a9 933d cdf7 5b3e dc20 013d 3c7e 103e
000000c0: 4005 8ebd d233 1b3e 50fa 763d
-0.02318269 0.105371624 0.19580272 0.011547921 0.1624049 0.10863111 0.07903717 0.07831386
0.17891917 0.10681578 0.008783634 0.0509317 0.06711712 0.18986131 0.10888331 0.10269832
0.08781247 0.14177461 0.1324369 -0.081891194 0.103018135 0.08798712 0.19282801 0.09368636
-0.02055733 0.18284833 0.041256946 0.16787288 0.031150462 0.09808673 0.11765553 0.21082574
-0.14424089 0.08541537 0.085513666 0.1327226 0.06799979 -0.13871382 0.17047565 0.003754985
0.12806559 0.22107187 0.08535627 0.25331867 0.072099805 0.21481247 0.031525478 0.14110655
-0.06934595 0.15156487 0.06029731

l3.weight f4 [50, 51]
00000000: 69b9 ddbe 6b18 1e3e 5bbc 22bd 1c83 efbd
00000010: 957c 843e a3cb cbbe 78b1 aabe a3a9 3abd
00000020: 6b43 35bd 0d2a eebe e24d edbd e3bc 913e
00000030: 894d 143e 2793 2ebe 6683 16bf f56d 873e
00000040: 1091 a0bd acb6 e8bd fd82 abbe 5b6b 933d
00000050: b6ed 653d 0225 17bf f736 c3be bf1c 97be
00000060: 9e7f 183e fa99 873e 37c5 db3d 2446 abbe
00000070: 2843 c7be 659e b73d e434 683e 38b4 60be
00000080: 5028 a0bd aa0d 6d3d e51f efbe 7aa4 54be
00000090: 2739 65be 9370 05be 25f1 b4bd f76d 35be
000000a0: 1562 5b3d c78d a0be b73d 74bc e120 e13d
000000b0: c5f0 c1be 2a39 463e d9cd 723d 97eb b93c
000000c0: d928 09bf 9a9b 263e a8ca 3fbe bc13 bf3a
000000d0: 35de dabc a0f5 c4be e424 ab3d 5b05 85be
000000e0: 418a 06be d1ee 263e ab55 0bbe b000 00be
000000f0: ac87 b33d 4062 09bf 1a52 fdbd 641f f13c
00000100: b2bc 9b3c ebe7 60be 5279 90bd ad6b 1fbe
00000110: ab8b c1be b3a1 29be 88ad 1fbe 197b bcbd
00000120: 3c1d 643d 077a 2d3e 5408 0f3d 683c 143d
00000130: 5b9e 39be d481 dabe 1013 103e e726 0c3e
00000140: 6ae4 ecbd b2f7 53bd 98d6 123b cd0d cdbd
00000150: cd0c 8b3e 27b1 c93d 5ee6 463d b3b6 c3be
00000160: c2cf cbbd 5e8c 96bc 763b a3be 4277 5abe
00000170: 5041 3bbe fddb 19be d94e 943d 9def 633d
00000180: de8c 2a3e 13a8 913b 3ed5 d93d 9dc0 34bd
00000190: a82c 21be b4f1 0e3e 150c e2bd 2467 e4be
000001a0: 98fb 9dbd 6920 973c 38d4 4b3d 1485 363e
000001b0: 664a 723e ef08 b6be cf4a 01bf a815 aebe
000001c0: 1bfd a43d 91a6 5e3e 00f2 a3bd 7f4e fabb
000001d0: 0f9c af3d 2358 863b f6e7 06bf a6ee 333c
000001e0: 0ae2 cc3c 6809 403e 9351 b6be 3ba8 56be
000001f0: 32f2 1e3e 1f77 003b 280e 3c3e 1c88 04be
00000200: a8bc bebe 2c0c 34bd 9fcb 243c f3b7 85be
00000210: bab2 bbbe afff 253e 7d9d ebbd cdd6 343c
00000220: 8c5a e33d 749c 69be c142 703e 7850 923d
00000230: 9c24 8ebd 0bfb 543e f394 86be 6547 98bd
00000240: deef 1fbf 90e7 5d3e 09dd 36be 0afa 11be
00000250: f972 813e 7e22 58bd f0d3 b0bd 7078 313e
00000260: 4566 0ebe 8b66 283e 2bf6 97bc 69e2 8fbe
00000270: 50b5 423d 6797 733e 9a3b a0be f7d7 af3e
00000280: cff5 c6bc ed7e 1ebf 9e52 9c3d 7456 b93d
00000290: 29db 25be ab2a 27bc 6e27 25be 54fe c9be
000002a0: fc4c 32bf c224 b6be 0cda 0abf bd35 02bf
000002b0: fbff c03d fe7f 13be 22b0 65be 9257 0cbf
000002c0: 3405 16bd 6968 1ebf 7e05 6cbd 7a4f 49bd
000002d0: 29d9 48bd 80e4 2c3e 586a 95be d14f e43c
000002e0: 267f 5f3e 18d7 b3bd c63e 6f3d 511b 743d
000002f0: 820a 373d f274 1bbc 8014 85ba dfa5 6c3e
00000300: 0212 9fbe 789a 1abf be21 08bf 4c22 a9be
00000310: a8e0 eb3c 0744 bc3c c80d 203e f837 c6bd
00000320: 0a7a 703e 04fc f7bd a529 6a3e 758f e13d
00000330: 27b5 dcbe d706 0abe 5af3 223e dabb 9dbd
00000340: 6760 44be 52ad 2d3d 07a2 573e 18fd d53b
00000350: 4242 97be 216b 123e 5c57 1bbf 0b30 3abe
00000360: 304c 743d b966 e2bd d366 1fbf fae5 bdbd
00000370: 7a09 433d 2b7b a33a 581c c4be 460b 06be
00000380: 362e edbd c5a0 3e3e 89a1 c9be 28cb 8ebe
00000390: 4f47 1cbf 8871 d1be 6743 3dbf 425b 0f3e
000003a0: 1806 113e 9130 29bd 0a64 9bbd af80 343e
000003b0: 3f6a 91bd c3b0 2b3e 23cd e93d ddaa 7a3d
000003c0: 641e 713e e009 863c 9fb5 94be 3ab7 4dbb
000003d0: 0910 cebe a7f6 15bf abe9 e0be 3e1e dd3d
000003e0: e18f 8c3d 28ef 91bd ec60 d5bc dd1e b1be
000003f0: 8acd 853d 624a 583e 7ab8 4c3e b017 debe
-0.4330552 0.15439002 -0.03973041 -0.11694929 0.258763 -0.398038 -0.33338523 -0.045571934
-0.044253748 -0.46516457 -0.115871206 0.28464422 0.14482702 -0.17048322 -0.5879425 0.26451078
-0.078401685 -0.11362967 -0.33498374 0.07198211 0.056134902 -0.59040844 -0.38127872 -0.2951412
0.14892432 0.26484662 0.10730975 -0.3345195 -0.38918424 0.08965758 0.22676426 -0.21943748
-0.07820189 0.05787436 -0.4670402 -0.20765868 -0.22385083 -0.13031225 -0.08835057 -0.1771773
0.053560335 -0.31358168 -0.014907292 0.10992599 -0.37879005 0.19357744 0.059278343 0.022695346
-0.53577954 0.16270295 -0.18729651 0.0014578025 -0.026717285 -0.38468647 0.08356646 -0.25980648
-0.13138677 0.16302039 -0.13606898 -0.12500262 0.08766112 -0.5366554 -0.12369175 0.029433914
0.019010875 -0.2196347 -0.0705439 -0.15568419 -0.3780187 -0.1656559 -0.1559354 -0.092031665
0.055691943 0.16941081 0.03492005 0.03619042 -0.18126814 -0.42677176 0.14069772 0.13686715
-0.11567004 -0.051749893 0.002240574 -0.10012398 0.27158204 0.09848242 0.04855954 -0.38225326
-0.09951736 -0.01837748 -0.31881303 -0.21334556 -0.18286633 -0.15025325 0.072416015 0.055648435
0.16655299 0.004445085 0.10636376 -0.044129003 -0.15739691 0.1395939 -0.11037461 -0.4460994
-0.07714003 0.018448072 0.049762934 0.17824203 0.23661193 -0.3555369 -0.50504774 -0.34000897
0.080560885 0.21743228 -0.08005142 -0.007638752 0.08574688 0.004099862 -0.52697694 0.010982191
0.025010128 0.18753588 -0.3560911 -0.20962612 0.15522078 0.0019602252 0.18364775 -0.12942547
-0.37253308 -0.04395692 0.010058313 -0.26116905 -0.36659795 0.16210817 -0.11504648 0.011037541
0.11101255 -0.22813588 0.23462965 0.071442544 -0.069405764 0.2079889 -0.26285514 -0.074354924
-0.62475383 0.21670365 -0.17857756 -0.14255539 0.2528303 -0.05276727 -0.08634174 0.173311
-0.139062 0.16445367 -0.01855 -0.28102425 0.047536194 0.23788224 -0.31295472 0.34344456
-0.024287133 -0.61912423 0.076329455 0.09049693 -0.16196884 -0.010203044 -0.16128322 -0.3945185
-0.6964872 -0.3557492 -0.54238963 -0.5086325 0.094238244 -0.14404294 -0.2243047 -0.5482112
-0.036626056 -0.6187807 -0.057622425 -0.04914806 -0.049035225 0.16884041 -0.29182696 0.02787009
0.21825847 -0.0878126 0.058409475 0.059596363 0.044687755 -0.009488331 -0.0010153204 0.2311015
-0.31068426 -0.6039195 -0.53176486 -0.3303398 0.028793648 0.022981657 0.15630257 -0.09678644
0.23484054 -0.12108615 0.22867449 0.110136904 -0.43106958 -0.13479172 0.15913144 -0.077018455
-0.191774 0.04240162 0.21057902 0.0065304153 -0.29542738 0.14298679 -0.60680175 -0.1818239
0.05964297 -0.11054749 -0.6226627 -0.0927238 0.04761646 0.001247262 -0.38302875 -0.13090238
-0.1158108 0.18616016 -0.39381054 -0.2788937 -0.6104631 -0.4090693 -0.7393097 0.13999656
0.14162481 -0.041306082 -0.0758744 0.17627214 -0.07100343 0.16766648 0.1141608 0.061198104
0.2354675 0.01636213 -0.29044816 -0.003138973 -0.4024661 -0.58579487 -0.43928275 0.10796784
0.0686338 -0.071256936 -0.026047193 -0.3459386 0.06533344 0.21122125 0.19992247 -0.43377447

l3.bias f4 [50]
00000000: 8a81 84bc 2fc5 253d 952e 823c 2361 93bd
00000010: c388 923b 5ad8 9ebc c5dc a7bd 5537 cfbd
00000020: 6680 1b3e a35b 0ebe ae4c 22bd 9ff6 b73c
00000030: 4e28 933b e1ce be3d 1df6 82bd df74 9a3d
00000040: b088 1e3e 8358 0cbd 8a0f 59bd cde7 b3bd
00000050: b6f3 93bd da8c cb3d 0ec0 863d 56f8 d9bd
00000060: 1b11 75bd ed7a 733c cd32 963c 7147 66bd
00000070: 98f6 3cbd faee 163e d345 083e 31a6 493d
00000080: 53b2 a33c f3fd fdbd b7ce a5bd 40b3 adbc
00000090: 15bc 6f3d 32fd cb3d 3613 9dbd 3064 d1bd
000000a0: b5bc 09be e246 893c 03b6 b93d c4a8 8c3d
000000b0: e824 62bc 2316 7c3d b3e4 ee3c 4cc8 fc3c
000000c0: daed afbd c12d aa3d
-0.01617505 0.040471252 0.015891353 -0.07196262 0.0044718697 -0.019390274 -0.08196405 -0.101179756
0.15185699 -0.13902144 -0.03962391 0.022456465 0.0044908887 0.09316803 -0.06394599 0.07541823
0.1548183 -0.0342641 -0.052993335 -0.08784447 -0.072242185 0.09938975 0.065796 -0.106430694
-0.059830766 0.014860851 0.01833477 -0.056220476 -0.046133608 0.147396 0.13307886 0.049230758
0.019982493 -0.124019526 -0.08096068 -0.021203637 0.05852898 0.099604025 -0.0766968 -0.102241874
-0.13450892 0.016757432 0.09067919 0.06868127 -0.013802744 0.06154455 0.029161787 0.030857228
-0.085902885 0.08309508
